C:\Users\Nick\AppData\Roaming\Python\Python38\site-packages\xgboost\compat.py:31: FutureWarning: pandas.Int64Index is deprecated and will be removed from pandas in a future version. Use pandas.Index with the appropriate dtype instead.
  from pandas import MultiIndex, Int64Index
Model: "sequential"
_________________________________________________________________
 Layer (type)                Output Shape              Param #
=================================================================
 dense (Dense)               (None, 128)               1664
 dropout (Dropout)           (None, 128)               0
 dense_1 (Dense)             (None, 256)               33024
 dense_2 (Dense)             (None, 256)               65792
 dense_3 (Dense)             (None, 1)                 257
=================================================================
Total params: 100,737
Trainable params: 100,737
Non-trainable params: 0
_________________________________________________________________
wandb: WARNING The save_model argument by default saves the model in the HDF5 format that cannot save custom objects like subclassed models and custom layers. This behavior will be deprecated in a future release in favor of the SavedModel format. Meanwhile, the HDF5 model is saved as W&B files and the SavedModel as W&B Artifacts.
…
